SCD_predict/Code/cnn_model.pt (torch, 178075 bytes, 11 tensors)

weight f4 [10, 1, 3]
000000 cb 05 38 bf fd 94 53 be 78 29 82 3f 94 0d 59 be
       -0.7188384 -0.20662303 1.0168905 -0.21196586
000010 6f 64 2a bf d6 ac c1 be 59 cd b1 3e 32 96 0b 3f
       -0.665595 -0.37827176 0.3472698 0.54526055
000020 e1 b3 a2 3e b9 9f f9 3d 05 99 6f be d5 8c 47 3b
       0.31777862 0.12188668 -0.23398216 0.0030448933
000030 83 33 8f 3e 74 7f 16 3f ff 6e bb 3e d7 4c ca 3e
       0.27968988 0.5878823 0.3660812 0.3951175
000040 db e0 7f bf 9f 3b 58 bf 6c 6a d8 3d 82 7c c8 be
       -0.9995248 -0.84465975 0.10567173 -0.39157492
000050 20 35 74 bf fe 28 d3 3e 4b 4b 93 be 28 06 c1 bf
       -0.9539356 0.41242212 -0.2876838 -1.5080004
000060 fc e9 b5 be 58 2b 38 3e 8d f1 9c be 47 45 e3 be
       -0.35530078 0.17985284 -0.3065304 -0.44388792
000070 d4 a0 b7 3e ba c7 04 bf
       0.3586489 -0.5186726

bias f4 [10]
000000 cd 34 b1 3c 5b ad d0 3e 3f 1c 6c be eb e6 47 3d
       0.021631623 0.4075726 -0.2305765 0.048804205
000010 19 07 5b be 66 0f 04 3f 55 4b db 3e 60 8e f4 3e
       -0.21389426 0.51585996 0.4283091 0.47764874
000020 32 86 e2 be ce e1 de 3e
       -0.44243008 0.4353165

weight f4 [20, 10, 3]
000000 14 57 92 3e 3c d8 dd 3e f3 8d d7 be b7 5b d4 3d
       0.2858206 0.43329036 -0.42100486 0.10369056
000010 5a 38 bf 3e b6 eb 16 3b 96 af 8d be f4 21 76 3e
       0.3734768 0.0023028678 -0.27673024 0.2403639
000020 58 e5 23 3d 1c be 45 be 14 a7 20 3e 4c 45 47 3e
       0.04001364 -0.19310802 0.15688735 0.19460028
000030 b4 72 c2 be 3a 7a 07 3e b6 f8 53 3d b8 ee ec 3e
       -0.37978137 0.1323022 0.05175086 0.46275878
000040 d2 8c 6f 3e db 4c 81 3e 10 d8 5e 3e ce 92 2b 3e
       0.23393562 0.2525395 0.21762109 0.1675522
000050 54 e7 a3 3e 23 bd 2d 3e 47 db a3 bd d0 ac 6b 3e
       0.32012427 0.16966681 -0.08000808 0.23015141
000060 c9 67 23 3d ea 67 d5 3d a4 55 23 bd 44 56 63 3d
       0.0398939 0.10420211 -0.039876595 0.05550219
000070 93 3d 11 bd 01 40 f8 bd 94 0c 06 3e 77 49 41 3e
       -0.035459112 -0.12121583 0.13090736 0.18875681
000080 57 e9 0f be 99 98 5f bd 55 44 20 3e c7 26 a0 3e
       -0.14053856 -0.054588888 0.15651067 0.31279585
000090 fa b3 87 be 8a 94 31 bd 96 98 cf bd c0 59 af bd
       -0.265045 -0.04335455 -0.10136525 -0.0856204
0000a0 e0 08 84 be 71 b7 78 be d1 2d bd be 8b 1b 15 bd
       -0.2578802 -0.24288727 -0.36949018 -0.03640322
0000b0 9e a7 bc bd d9 9f cd bd 45 92 27 be 2d a0 49 3e
       -0.09211658 -0.10040254 -0.16364391 0.19690008
0000c0 d9 8d 24 be e7 47 a3 3c 4e 46 33 be 1b 53 3e 3d
       -0.16069736 0.019931747 -0.17507288 0.046465974
0000d0 ff 6f 14 be 9b ce 17 be 18 82 f6 3d ea ec b8 bd
       -0.14495848 -0.14824907 0.12036532 -0.09029563
0000e0 0f b9 01 be 32 36 47 be 35 5a 46 be 1c b6 9d 3d
       -0.1266825 -0.19454268 -0.19370349 0.0770075
0000f0 76 f4 63 3d 9e 00 be bd 9d ec 16 be f5 4c 17 3e
       0.055653058 -0.092774615 -0.14738698 0.1477545
000100 6f 6f a1 bb 38 4c 5d bf cf f8 0d 3f 68 63 14 3e
       -0.004926614 -0.86444426 0.55457777 0.14491045
000110 5f b3 79 3e 23 fc 02 3e e3 41 54 3d 61 98 aa 3c
       0.24384831 0.12791495 0.051820647 0.020824613
000120 3a e7 10 3f af 35 ab 3c 32 3d 68 bd d3 9f 98 be
       0.56602824 0.020899622 -0.056698985 -0.29809436
000130 43 29 8a be b7 b0 f1 be 61 c1 20 3e 73 6d 4b be
       -0.26984605 -0.47205135 0.15698768 -0.1986597
000140 de a7 f6 bd 9d 48 52 be 75 e2 48 bf e2 b3 78 be
       -0.12043737 -0.20535512 -0.78470546 -0.2428737
000150 14 86 9b 3d 4b af 8d bd 83 d3 2d bd 44 68 10 3e
       0.07593933 -0.069182 -0.04243804 0.14102274
000160 65 3b 4e 3e 3f 03 32 3d e4 ce 5c 3d 71 0b d9 3d
       0.20139845 0.043460127 0.053908244 0.105978854
000170 3d 3e 95 3d b7 25 85 3d e6 28 18 bc 09 e9 31 be
       0.07287262 0.06501334 -0.009287095 -0.17374052
000180 4f 43 55 be 95 95 82 3d b1 b9 04 be 0a 1b 64 be
       -0.20826457 0.06376187 -0.1296146 -0.2227594
000190 1f bf 22 bd 5c dd 5e be 83 2e a8 bb 2c 5f 96 3d
       -0.03973305 -0.2176413 -0.0051324978 0.07342371
0001a0 97 75 1e be 2a ce 9e bd 0d b9 98 bc 40 5a 28 be
       -0.15474544 -0.077541664 -0.018642927 -0.16440678
0001b0 78 2d 5c be 8e a1 ea 3d 4f d1 40 bc a4 f3 59 be
       -0.2150172 0.11456595 -0.011768653 -0.21284348
0001c0 b7 11 02 bd f7 ca 28 bd f3 be 14 3c c1 ea fd 3c
       -0.031755175 -0.041209187 0.009078729 0.030995728
0001d0 4a 68 ab bd e6 33 f1 bd 70 9d c3 bc 20 58 ef bd
       -0.08369501 -0.11777477 -0.023878783 -0.116867304
0001e0 75 f6 40 bd d9 50 a8 be b0 1b 7d bf 16 01 38 bd
       -0.04711004 -0.32874182 -0.9887037 -0.04492291
0001f0 3d 14 1b 3d 2a de bd 3c d8 8f 1d 3e da 1f 7f bd
       0.037861098 0.023177225 0.15386903 -0.062286235
000200 c8 30 d2 3e b7 34 f4 bb 56 8c 09 3e 92 35 0f 3e
       0.41052842 -0.007452573 0.1343244 0.13985279
000210 93 88 ed 3d c0 af e7 3c 9a 78 41 3e 7e a6 15 bf
       0.11598315 0.028282046 0.18893662 -0.5845717
000220 4d 10 70 be 03 92 b0 3e 8b 54 7e be c6 6b d6 3c
       -0.23443718 0.34486398 -0.24836938 0.026174437
000230 f0 9c 86 3e 66 99 a1 be 9c d6 8b be b4 5c 69 3e
       0.2629161 -0.31562346 -0.2731217 0.2278927
000240 f2 00 2a 3e 0b c3 64 3d cf c7 fb 3b 3c bb 46 3d
       0.16601923 0.05585007 0.007683731 0.048518404
000250 d6 e9 b2 3c f4 5c 71 3d 45 b6 34 bd 67 4d cf 3d
       0.021840017 0.058926538 -0.04411914 0.10122185
000260 7a a3 f3 bc 22 b7 c9 bc 4b 83 06 3e e2 3f ca be
       -0.029741038 -0.024623457 0.13136022 -0.39501864
000270 dd c8 ed 3e 25 99 63 be f0 6f d6 bd 83 86 84 3e
       0.4644231 -0.22226389 -0.10470569 0.25883874
000280 5a ba 83 3d 82 d0 cf 3d a2 77 c0 3e d8 80 87 be
       0.06432028 0.101471916 0.37591273 -0.26465487
000290 db df 6f 39 0e 94 bf 3e 8f 11 04 3e f5 11 06 bf
       0.00022876209 0.37417644 0.12897323 -0.5237115
0002a0 b8 00 25 3e 4f 56 b7 bd 24 e6 19 be cd d6 ad 3d
       0.16113555 -0.08952009 -0.15029198 0.084882356
0002b0 70 2c a8 3b 4e 61 17 bf ef bf 20 3e c1 40 20 be
       0.0051322505 -0.5913285 0.15698217 -0.15649702
0002c0 7b 58 30 bc 69 d9 07 be 2c 40 5d 3e ea 7c 37 3e
       -0.010763283 -0.13266529 0.21606511 0.17918745
0002d0 f9 23 9d 3d 55 31 b1 3e c3 29 ad bd 30 d3 c3 3e
       0.07672877 0.3460795 -0.08455231 0.3824706
0002e0 7a 01 e5 3e f8 6a 13 3e 04 ef 89 3e e7 6a 9e be
       0.4472769 0.14396274 0.26940167 -0.30940935
0002f0 a8 16 21 bf 1d 8a c9 3e 04 8d f4 3c 9e 23 81 be
       -0.62925196 0.39363185 0.029852398 -0.25222486
000300 7d 50 a9 3e 9b d3 ca be 7d 2f 2f bf ba f1 42 3f
       0.3306922 -0.39614567 -0.68431836 0.76150095
000310 bd a6 07 3d 58 66 df bb 87 8b b1 3e 07 a4 19 3e
       0.033118 -0.0068176202 0.34676763 0.15003978
000320 73 97 1f bd e8 7b 0d 3f dd fc d4 3d 5a ab ca be
       -0.038962793 0.5526719 0.10399792 -0.39583856
000330 e2 ae 7e 3d 0d 99 93 bc f7 b1 d7 bc 96 9a e7 bd
       0.0621785 -0.018017316 -0.026329977 -0.11308782
000340 63 62 d4 3e 16 89 a3 3e 50 87 a0 bd ba 7d 50 3d
       0.41481313 0.31940526 -0.07838309 0.050901152
000350 58 7e d2 be 4c 6b a9 3e c6 5a 25 bd 73 02 bb bc
       -0.41112018 0.33089674 -0.04036977 -0.022828316
000360 b6 ba 64 3e cf 44 96 3d c6 09 3f 3e 59 73 c3 bd
       0.2233685 0.07337343 0.18656072 -0.09543485
000370 39 ad 12 3e 93 fc 0d 3e 4f 25 8e 3e a0 c0 14 3c
       0.14323892 0.1386588 0.2776284 0.0090791285
000380 8a 6c bf 3d 62 62 6a be a6 d6 d6 bd e4 2f 42 be
       0.09346874 -0.22889093 -0.1049016 -0.18963581
000390 68 80 ed bd 52 95 d6 3e 36 60 d1 bd 8a 16 b5 bd
       -0.11596757 0.41910797 -0.10223429 -0.088421896
0003a0 d9 80 ea bd ab fd 0b 3c c4 42 8d bd 72 92 fd 3d
       -0.11450357 0.008544366 -0.068975 0.12381448
0003b0 f1 9c 32 be 88 b5 4b 3c 38 b8 e8 bb 59 42 77 be
       -0.17442681 0.012433417 -0.0071020387 -0.24146403
0003c0 f3 c1 c3 bc 80 5d 6a bd c6 bf 3e 3d 47 61 3d bc
       -0.023896193 -0.057218075 0.04656961 -0.011558837
0003d0 48 6c f7 3d ca f9 37 bd 3d 52 e3 bc 3c 5b 3d be
       0.120812 -0.04491595 -0.027749175 -0.18491834
0003e0 20 0c 90 3d 49 02 6f be eb 54 6b 3d 0d bd 15 be
       0.07033563 -0.23340715 0.05745403 -0.14622898
0003f0 20 0a 8c 3d 11 a9 c7 bd dc 86 26 be aa f1 f5 bd
       0.06837869 -0.09749044 -0.16262382 -0.120089844

bias f4 [20]
000000 80 ec dd bd 5b 23 51 3c c3 aa 89 3e 0b 94 4a 3c
       -0.108361244 0.012764777 0.26888093 0.012364398
000010 60 28 b1 bd 7c c3 e2 3d e4 f0 5d bd db a1 04 bd
       -0.08650279 0.11072442 -0.05418481 -0.03238092
000020 1b 5b 2e be db ed 37 3e 65 75 2d be 9a f2 00 be
       -0.17026941 0.17961828 -0.16939314 -0.12592545
000030 91 0a de 3c 9a 95 3d be f8 40 c5 3e ad 3c e1 3b
       0.027104648 -0.185141 0.3852613 0.006873688
000040 ff a0 48 bd 56 55 15 be 97 cb 77 bd af af 1b be
       -0.048981663 -0.14583334 -0.060496893 -0.15203737

weight f4 [40, 20, 3]
000000 dd 5c 7b 3e 08 b6 2b 3e 68 bf eb be 0f d2 52 3e
       0.24547143 0.16768658 -0.4604447 0.20587943
000010 12 24 9d 3d 1b 77 51 3d 9b b8 8d bd 49 1f b9 3e
       0.076728955 0.05113898 -0.06919976 0.3615668
000020 bc 05 03 3f 80 fc 49 bd db c9 fe 3d cf 44 ea bc
       0.51180625 -0.04931307 0.124408446 -0.028597264
000030 3e 27 da 3d fa 3e ed be 1a 96 cf 3e c0 95 aa 3e
       0.10652016 -0.4633711 0.40544206 0.33317375
000040 1b 96 a6 3d 1a a8 48 bd b9 7c e0 3e e9 64 33 3c
       0.08134099 -0.04898844 0.43845156 0.010949352
000050 2f 7c bb be 9b 50 6a bd 88 6d 48 bd 84 37 a6 3e
       -0.36618182 -0.057205778 -0.048932582 0.3246423
000060 ee 3b 32 3d 85 b3 3e bc db ca 7c bc 14 7d 98 bd
       0.043514185 -0.0116394805 -0.015429224 -0.07445732
000070 c9 ca 59 bd 4a 52 86 3e b7 d5 b4 3e 47 50 26 3e
       -0.053171907 0.26234657 0.353193 0.16241561
000080 cf 17 0f bf c5 f9 7a 3c 33 64 25 bf 4a b0 65 3d
       -0.55895704 0.015318339 -0.64606017 0.056076325
000090 7c 49 18 be a0 81 ab be cb a2 8d 3e a9 eb 9a be
       -0.14871782 -0.33497334 0.27663264 -0.3025792
0000a0 1e 86 ab 3c 4e 8f 53 3e 9a 3f 35 be 58 2e 41 3e
       0.020937975 0.20660135 -0.17700043 0.18865335
0000b0 22 47 10 3f 1e 3e 7c bd af 81 15 be 8a be a3 3e
       0.5635854 -0.061582677 -0.14600252 0.31981307
0000c0 ca 93 c8 3d 1c 2f ad bd af 53 b2 bd 25 a4 71 bd
       0.097938135 -0.08456251 -0.08707368 -0.05899443
0000d0 de cc ed 3c 10 e2 3f bd 99 67 5e bb 02 17 85 bd
       0.029028352 -0.04684645 -0.003393626 -0.06498529
0000e0 58 71 df 3c fc d6 4b be 85 50 f1 be 68 46 3b 3e
       0.027275726 -0.19906229 -0.47131744 0.18288577
0000f0 78 9d 00 bc ca e5 f1 3d 2b 8a 1d bf 3d a0 45 3e
       -0.0078500435 0.11811407 -0.6153895 0.19299407
000100 1e 61 26 3e e2 7a 62 bd cb 79 c2 be df b6 87 3e
       0.16247985 -0.05529297 -0.37983546 0.26506707
000110 1f b4 07 be 7d 5f 4f bd 73 d9 5e bd 90 d5 28 3e
       -0.13252304 -0.050628174 -0.054406594 0.16487718
000120 f5 76 2f 3e 66 0c a7 be 85 f9 0c 3f 83 5b 9e bd
       0.17135222 -0.32626647 0.55068237 -0.07732298
000130 16 70 70 bd 35 4c 7c be 24 04 31 be ff d9 a8 be
       -0.058700643 -0.24638446 -0.17286736 -0.32978818
000140 8f 68 7c be 38 3c 3a bd b9 de e3 3e d9 a6 f5 3e
       -0.24649261 -0.045467585 0.4450586 0.47978857
000150 cc be ec bd 03 44 ce bd 1c 23 90 bd c5 37 9b 3c
       -0.11559829 -0.10071566 -0.070379466 0.018947491
000160 06 59 fb 3d b6 34 58 3f 43 48 20 3e b4 da 8d 3e
       0.12272839 0.8445543 0.15652566 0.2770592
000170 b3 40 30 bf 8f 00 ee 3e ef 13 b1 be 1d 21 80 be
       -0.68848723 0.464848 -0.3458552 -0.25025263
000180 3c 25 0e 3e 8f 31 50 be 32 b1 ac 3e 8a 3e 25 bd
       0.13881391 -0.20331405 0.3372894 -0.040342845
000190 40 14 e7 3e 05 a9 8a 3e c0 e3 9b be 36 a2 14 bc
       0.45132637 0.27082077 -0.30447197 -0.009071877
0001a0 80 d0 bb 3d 6a 97 8d 3d 51 4f e2 bd 46 cf 04 3e
       0.091706276 0.069136456 -0.11050285 0.12969694
0001b0 e9 2b d7 b9 1a 9a 90 bd 84 cf 9c 3d 02 24 46 bb
       -0.0004104071 -0.070606425 0.07656768 -0.0030233865
0001c0 13 11 4d 3c cf 65 00 3c aa 78 1d 3e 4a 62 09 3e
       0.012516278 0.007836773 0.15378061 0.134164
0001d0 0b 73 63 3d ad 13 15 3f 3c 36 ca be 6a c2 09 3e
       0.055529635 0.5823315 -0.39494503 0.1345307
0001e0 ac 6d 99 be 2d 85 9a 3e 47 b9 fb bc 87 93 32 3d
       -0.29966486 0.3017973 -0.030727996 0.043597724
0001f0 9b b3 b2 3d de 72 af 3d c7 6d ec 3c 2d a7 67 be
       0.08725663 0.08566831 0.02886094 -0.22622366
000200 9c 90 88 3c be a6 af bc a6 76 7a bc 3a 1f 4f bd
       0.016670518 -0.021441814 -0.015287077 -0.05056689
000210 b8 0e 8d 3c a1 bb 44 3d 0d ff c3 be 6a a6 d9 be
       0.017218933 0.0480305 -0.38280526 -0.42509776
000220 0f 86 29 3e 13 8d fc 3e 22 05 e6 be 9d e9 c6 3e
       0.16555046 0.4932638 -0.4492579 0.38850108
000230 b3 a9 e9 3e f0 44 4f 3e 4f 17 c3 3d 1e d6 6b be
       0.45637283 0.20241141 0.0952593 -0.23030898
000240 a7 71 7b bd e7 47 14 3d 76 5b b0 bd 33 4b f4 3d
       -0.061387684 0.036201384 -0.08611195 0.119284056
000250 17 e6 d0 bd f5 c1 7c be e5 2f 68 be ac 5b 11 3f
       -0.10200136 -0.24683364 -0.2267452 0.56780505
000260 41 04 5f 3e da 09 61 3f 9e 20 6e 3d ef 12 f6 be
       0.21778966 0.8790566 0.058136575 -0.4806132
000270 1d b7 5f 3e 7a 1a 3e be 03 f1 27 bf dc 0d aa bd
       0.21847196 -0.18564788 -0.6560213 -0.08303425
000280 20 7b 4b be 77 be 50 be 92 f0 ff bd fc 6d aa be
       -0.19871187 -0.20385157 -0.12497057 -0.33287036
000290 5c ae 1f 3e 41 07 bb bd 03 77 ec bd a4 69 b4 bd
       0.15593857 -0.09132243 -0.11546137 -0.08809212
0002a0 86 8e 04 be 4d 99 e6 3c 8f 04 2b 3d 91 06 7f bd
       -0.12944993 0.028149271 0.041752394 -0.06226212
0002b0 71 0d 4f 3d 01 12 c7 3b 5f 29 3f be 51 de 14 be
       0.050549928 0.0060751443 -0.18668126 -0.14537932
0002c0 52 06 46 be 65 c3 b2 3e 6f da cf 3c e7 33 4b bd
       -0.19338349 0.349147 0.025372712 -0.049610045
0002d0 d9 34 63 be 96 c0 68 bd 48 6b 52 bc f2 3a 2f 3e
       -0.22188129 -0.05682429 -0.012842961 0.1711233
0002e0 8b 09 62 3e 8e 4b 63 3e e5 69 fd bc 62 4e 7a be
       0.22073953 0.2219679 -0.030934284 -0.24443963
0002f0 37 23 ad 3d 66 9a 11 3e fe c4 62 3d 58 0e b0 ba
       0.08453982 0.14219055 0.055363648 -0.0013432009
000300 3c 44 60 3b 85 58 34 bd 02 58 4f be f4 b8 d2 bd
       0.0034220358 -0.04402973 -0.20248416 -0.10289183
000310 ab 3d a6 bb d3 18 8c bd ce c2 bb bd 9b 85 66 3d
       -0.0050732694 -0.06840672 -0.091680154 0.05627976
000320 9a ff 65 be cb 03 98 be 73 5c 87 be 5d be c9 bd
       -0.22460786 -0.29690394 -0.2643772 -0.09850762
000330 e1 90 a4 3d d5 34 0b 3e df e7 35 bd da d2 74 be
       0.08035446 0.13594373 -0.044410583 -0.23908558
000340 ec af f1 bd c3 cc d6 bc de e5 82 3d 37 b1 8e 3b
       -0.118011326 -0.026220685 0.063915 0.0043546217
000350 94 30 cc 3d 11 c5 a6 bd 0b 53 f2 bc 9c db ab be
       0.09970203 -0.08143056 -0.029580614 -0.33565986
000360 d9 80 89 bd ed 66 e5 bd 39 f6 32 be b8 7c 8e be
       -0.06714029 -0.11201272 -0.17476739 -0.27829528
000370 98 6d 54 be c4 18 92 bc eb 5b 3f bd 46 6b 22 bc
       -0.20744932 -0.017834075 -0.04671852 -0.009913271
000380 2f 59 f2 3c e1 03 85 bc e1 5d 29 bd 31 5a 10 be
       0.029583542 -0.016237201 -0.041349296 -0.14096905
000390 fe 71 9f 3d ac ae 59 bd 78 47 36 bb ac 2a ce 3d
       0.07785414 -0.053145096 -0.0027813595 0.10066733
0003a0 1e 5f a4 3d 29 f2 cc 3d 1e 01 f7 bd e4 db 13 3d
       0.08025955 0.10007126 -0.1206076 0.036098376
0003b0 9f 36 56 3d 02 a1 35 3d 7c 77 11 3d fb 8d 7c be
       0.052298184 0.044343002 0.03551434 -0.24663536
0003c0 f9 57 f2 be 63 aa 89 be 7a 4d 82 3e 36 c6 89 3d
       -0.47332743 -0.26887807 0.25449735 0.06727259
0003d0 c9 cc 2f 3d 79 1c 73 3d 19 6a db 3e 15 9f b6 bc
       0.042919908 0.059353326 0.42854384 -0.022292653
0003e0 4b 77 aa be da 48 80 3d 97 25 b8 bd 5c cf 33 bd
       -0.33294138 0.06263895 -0.08991545 -0.043898925
0003f0 a6 d5 59 3e 3b 99 84 3e c8 52 58 bd 86 b2 f3 be
       0.21272907 0.25898156 -0.05281332 -0.4759714

bias f4 [40]
000000 28 98 2b 3e 79 d1 8b be 5b 5d 70 3e 12 52 44 bd
       0.16757262 -0.27308252 0.23473112 -0.04792983
000010 be fc 5c be 26 b2 72 be 36 d6 31 3c f3 58 33 bc
       -0.21580788 -0.2370077 0.0108542945 -0.0109465
000020 36 e3 12 be a3 8b 24 3e 5c 85 22 be 30 0f d9 be
       -0.14344487 0.16068892 -0.15871185 -0.423944
000030 6f db 03 be 40 bd bd 3d 71 1b 7f 3e 33 fd ae bd
       -0.12876676 0.09264612 0.24912812 -0.08544388
000040 e0 67 1a 3d 9f 19 72 be 08 8f b8 3d 2c 59 9a 3c
       0.03769672 -0.23642586 0.09011656 0.018841349
000050 65 a2 e9 bc 4d d7 6f 38 9d 88 bf 3d 85 3e 0d 3d
       -0.028519819 5.7182555e-05 0.09352229 0.03448345
000060 8a a8 b5 3d 39 c8 2b be 29 14 76 bd 21 50 21 bd
       0.08870037 -0.16775598 -0.06007782 -0.039383058
000070 2d 1c 2b be de e2 27 be 40 fe 02 be 07 3e 8a be
       -0.16709967 -0.16395137 -0.12792301 -0.27000448
000080 cd 05 60 be 00 5f 5a bd e7 12 d4 be 42 70 b2 bd
       -0.21877213 -0.053313255 -0.4142067 -0.08712818
000090 af 03 14 bd ea 81 89 be d6 83 df bd d1 f2 df bd
       -0.036136325 -0.2685693 -0.109138176 -0.109349854

weight f4 [70, 560]
000000 af 08 81 3e ec ba 0d 3d e4 12 d7 bd bd a0 42 3d
       0.25201938 0.03460209 -0.1050165 0.047516573
000010 a9 39 61 be cc c7 3e 3f bd f3 8e 3d 0e 28 f5 bd
       -0.21994652 0.74523616 0.06980083 -0.119705305
000020 45 f3 83 bd b5 61 a5 bd a5 90 4b 3e c4 26 c3 bc
       -0.06442884 -0.08075277 0.19879396 -0.023822196
000030 ef f8 ff be 26 4c 22 be ab a9 98 3e 34 ba 05 3e
       -0.4999461 -0.15849361 0.29816946 0.13059312
000040 b2 1d c8 bd 03 ba ce 3e 0e d9 b6 be 08 b2 de 3e
       -0.09771289 0.4037629 -0.35712475 0.43495202
000050 a6 0b 61 bd a2 9a 7b 3e 79 b7 99 3e 0f b1 4a 3e
       -0.05494275 0.24570706 0.3002279 0.19794105
000060 a2 8c 8b 3e 5e 55 c3 3e 31 e9 a1 3d d7 68 ae 3e
       0.27255732 0.38151067 0.07905806 0.3406436
000070 1c 8b ae be f4 5c 18 be 5b 98 dd bd 73 79 b0 3e
       -0.34090507 -0.14879209 -0.10820075 0.34467658
000080 8f 48 8f 3e 63 80 59 be 3f 78 98 be 76 b0 48 3e
       0.27985045 -0.21240382 -0.2977924 0.19598565
000090 38 d5 4a 3e 9e ce fd 3d b7 aa 2a 3d be 1b 5c be
       0.19807899 0.12392925 0.041666713 -0.21494958
0000a0 aa df 54 3e 5e 6e 3f 3f 3e 12 fb 3d f5 4c 12 3b
       0.20788446 0.7477778 0.12259339 0.0022323702
0000b0 28 c4 89 3d 72 10 90 bd 1f 4a 2f 3e c2 8d 8e 3d
       0.06726867 -0.07034387 0.17118119 0.06960632
0000c0 95 02 f6 3b 7f 0b 39 3d 5b 39 7a 3d 9e 2a fe 3d
       0.007507632 0.04517698 0.061089855 0.12410472
0000d0 bd c0 69 3d 13 28 44 bc e6 fd 06 bd a2 48 60 3d
       0.057068575 -0.011972445 -0.03295698 0.054756768
0000e0 97 18 f8 bd c3 74 6c 3e 79 67 e4 3c 70 1f 5b 3d
       -0.12114065 0.23091416 0.02788137 0.053496778
0000f0 e5 9c 6a be 67 7f 11 bf 02 10 b5 be 69 fd 59 3e
       -0.22911413 -0.56835026 -0.35363775 0.21288075
000100 9c cb da 3d 88 ea 6a bd c4 81 b7 be b6 00 5f be
       0.10683367 -0.057352573 -0.3584119 -0.21777615
000110 b3 99 f1 3d 7a 62 28 be 76 51 37 3e a9 bf a2 3e
       0.11796894 -0.16443816 0.17902169 0.3178685
000120 57 41 19 3e 4c 38 05 3e 33 d4 83 be 60 9f 87 be
       0.14966331 0.13009757 -0.25747833 -0.2648878
000130 2b cc 2f bb ec 18 34 3d b6 19 98 3d 86 13 b7 3d
       -0.0026824574 0.04396908 0.07426779 0.08939271
000140 c7 66 7e bd 72 4e d2 bd fd 14 15 3e 8e c7 a3 be
       -0.062109735 -0.102688685 0.14558788 -0.31988186
000150 1b 25 fa bd 26 09 c3 bd 78 95 75 3d a9 2c 34 3e
       -0.122141086 -0.09523229 0.059956998 0.17595161
000160 ac 17 2e bb a0 da 25 bd 18 18 5d 3d d6 a9 f9 3b
       -0.0026564403 -0.0404917 0.053978056 0.007619123
000170 6c a5 bd 3b a8 ae 63 bd bf 42 8e bd 03 a6 03 be
       0.005787542 -0.055586487 -0.069463246 -0.12856297
000180 08 bd da bc b6 c6 0a 3d 76 98 65 3d 7a 7a 04 bc
       -0.026701465 0.03388091 0.0560536 -0.008085841
000190 c4 13 8a bd 78 d5 9a 3e 63 cd 0b 3f 24 7b 98 3e
       -0.06742051 0.3024099 0.5461027 0.2978145
0001a0 1d 5d a5 bc be 02 4d 3c fc 33 84 3d 33 02 52 3e
       -0.020186001 0.012512861 0.06455228 0.20508651
0001b0 0d 76 9d 3e b6 48 05 be 4f 05 44 be fb 2b a4 3e
       0.30754128 -0.13016018 -0.1914265 0.32064804
0001c0 fb 27 25 bd 25 37 af 3e de d0 4c 3e 23 b3 8d 3e
       -0.04032133 0.3422176 0.20001552 0.27675733
0001d0 42 8f 0c bf 62 99 af 3e 46 15 bf be 52 86 f1 3d
       -0.54906094 0.3429671 -0.37320918 0.11793198
0001e0 2a a2 63 3e da d5 69 3e 68 a8 08 be bc 34 0f 3e
       0.2222983 0.22835484 -0.13345492 0.1398496
0001f0 c0 14 79 3d 9d 0c c2 3e 16 a0 ad bd 76 fd 86 3c
       0.060810804 0.37900248 -0.084777996 0.016478281
000200 bb 2d 50 3e 6e 6b d1 3e 9a 11 93 3e b8 4a 9f 3e
       0.20329945 0.40902275 0.28724366 0.31111693
000210 21 4a 08 3e 95 98 5b 3e bc c0 25 3e fe 0d 41 3e
       0.13309528 0.21444924 0.16186804 0.18852994
000220 55 1a 9c 3d 8c fe d6 3e 40 9b c9 3e bc 6d ba 3e
       0.0762221 0.4199108 0.3937626 0.36411846
000230 b4 a1 0f 3c 31 64 99 3c ce 84 a0 3c 54 8f 97 bc
       0.00876658 0.018724533 0.019594576 -0.018500961
000240 5a 75 54 bc a7 ba fe bc 59 a5 48 3c b7 a1 01 bd
       -0.012967432 -0.031094862 0.012246453 -0.031648364
000250 48 c8 a6 3c 8b d2 a9 bc a3 3f a5 bc ee 60 aa 3c
       0.020359173 -0.020730278 -0.020171946 0.020798173
000260 16 33 25 3d 09 55 b6 bc 44 c6 51 3e 41 38 88 3e
       0.040331922 -0.022257345 0.20485789 0.26605418
000270 1e 07 16 3e 4d 7e ac 3d 54 02 8c be cf b7 19 bf
       0.14651152 0.084225275 -0.27345526 -0.60046095
000280 48 db 5a 3e 3f b0 e4 bd 69 53 f3 3c 69 af e3 3b
       0.21372712 -0.11166429 0.029702859 0.0069484008
000290 9b 4f 9c ba 97 63 a4 3c 51 c8 d8 3e 9e 85 8d be
       -0.001192558 0.02006702 0.4234033 -0.27641004
0002a0 9b bf 8f 3e 95 f9 bc bd 31 b2 86 be 27 04 01 be
       0.2807587 -0.092272915 -0.26307824 -0.1259924
0002b0 07 24 0f 3f f7 d8 8c 3d 6a 5b 85 be 24 d6 04 be
       0.5591435 0.0687732 -0.26046306 -0.12972313
0002c0 21 2b 97 3d 15 4b 08 3e 82 f6 82 3e 47 36 19 be
       0.07381273 0.13309892 0.25578696 -0.14962111
0002d0 85 e9 d0 be 19 b1 2b 3e fd a0 cf 3e 45 fd 41 3e
       -0.4080316 0.16766776 0.40552512 0.18944271
0002e0 ee 31 20 3d 15 ed 18 3c a8 9c ee be 29 73 fb be
       0.039110117 0.0093338685 -0.46603894 -0.49111298
0002f0 e9 c0 0a 3f 41 e8 3e bd 05 eb e5 bd 85 dc 5e be
       0.5420061 -0.046608213 -0.11226467 -0.21763809
000300 2d 20 dd bc 6f 6e 85 3e ce a6 bf 3b 60 25 15 bf
       -0.026992882 0.26060817 0.005848742 -0.58260155
000310 41 92 dc be 92 58 5c be 14 69 98 bd b4 da 56 3e
       -0.43080333 -0.21518162 -0.07441917 0.20981866
000320 ef 64 ab 3e e3 c4 2d bd a3 f9 c1 be 52 6b 55 bd
       0.33475444 -0.042424094 -0.3788577 -0.0521043
000330 fc fc 3e bb 83 51 93 3c 38 aa e7 bc 36 30 b4 be
       -0.002914249 0.017983204 -0.028279409 -0.35193032
000340 d6 8c 82 be 53 1d 08 3f ed 04 55 be c6 99 04 be
       -0.25498074 0.53169745 -0.2080266 -0.12949285
000350 0c 16 40 bd 0a c4 8b 3e 84 a0 cd 3e 3f 13 b0 3d
       -0.046896026 0.27298003 0.40161526 0.08597421
000360 24 53 0a be b5 b4 b2 3d 54 a2 29 3e 84 33 45 3e
       -0.13508278 0.087258734 0.1656583 0.19257933
000370 10 19 a3 3d e4 5b a2 bd a8 15 98 bd 3e 3a a7 3e
       0.07963765 -0.07927683 -0.074260056 0.32661623
000380 f7 44 15 3d 28 46 99 3c cd f5 ff 3c 6b 1f 7b 3c
       0.036442723 0.01871021 0.031245137 0.015327315
000390 0d c2 cf 3c 46 bf 8e 3c ac 9e 5a bc 23 f7 f9 3c
       0.025361085 0.01742519 -0.013343494 0.030513352
0003a0 cc c4 3d bc 70 7a d5 3c 8b 73 99 3c 7f 6e 99 3c
       -0.011582565 0.02605936 0.018731853 0.018729446
0003b0 fb fb 24 3d 9b a6 0f bd 26 21 2a 3e 2f 16 19 bd
       0.04027937 -0.035070997 0.16614208 -0.03737467
0003c0 a0 63 a1 3e b7 2b 1b be e0 a4 28 be ef b0 ce 3d
       0.3152132 -0.15153395 -0.16469145 0.10092341
0003d0 49 e9 71 3e 2a a0 a7 bd 1e d7 54 bd 59 21 db 3d
       0.23624147 -0.08184846 -0.051962964 0.1069972
0003e0 b3 a9 a9 3d 52 40 66 3e 7c 7f 19 3e 2e d3 d7 bc
       0.08284321 0.22485474 0.14990038 -0.026345816
0003f0 c9 5b 7f bd 8a b9 ae be 37 d2 10 be 09 d5 04 3e
       -0.062343393 -0.3412593 -0.1414269 0.12971891

bias f4 [70]
000000 81 6c a9 bd bf 04 d5 bc 26 12 b2 be ac 5c bd bd
       -0.082726486 -0.02600324 -0.3477947 -0.092461914
000010 17 fa 70 bc 90 94 7e 3d 1f 80 18 bd 13 cd fe bc
       -0.014708064 0.0621534 -0.03723156 -0.031103646
000020 dd 13 4a be de 51 12 be e8 49 9c bc 06 0b 8e bd
       -0.1973414 -0.14289042 -0.01907821 -0.06935696
000030 9e 35 0e be 0f a3 1a bd 87 1d b7 bc 92 ac 9b b6
       -0.13887641 -0.03775316 -0.022352947 -4.63945e-06
000040 70 56 e3 bb 64 9d 61 bd 17 a3 14 be 97 8e 1c bd
       -0.0069377944 -0.05508174 -0.14515339 -0.03822192
000050 00 9c 63 be 10 e6 de bb 81 34 95 bb c9 76 85 3c
       -0.22227478 -0.006802328 -0.004553378 0.016291993
000060 61 6f ba bc 4e 99 96 3b 7a 77 d2 3b fe 4f 8c 3c
       -0.022758188 0.004595912 0.006422934 0.017127987
000070 78 5b 1c bd 0a f8 7a 3c 89 68 95 bd 80 83 d4 bd
       -0.03817317 0.015317926 -0.07295329 -0.10376644
000080 64 59 3a bd 63 65 f8 bc 73 97 0e 3d c8 17 78 bd
       -0.045495406 -0.030321782 0.034812402 -0.060569555
000090 19 a9 4e 3c d4 00 11 3c 96 e9 d7 bc 9c a3 bb bb
       0.012613558 0.008850295 -0.0263565 -0.005726291
0000a0 e7 f5 b2 3b 30 54 ca 3c 96 11 02 be 14 b9 8e bc
       0.0054614427 0.024698347 -0.12702021 -0.017422237
0000b0 89 59 a5 bb 3d 5b 01 bc 41 99 f0 bd 7b 5d 3d be
       -0.005046074 -0.007895288 -0.11747981 -0.18492691
0000c0 ce 1c 29 bd 17 9a 9a 3c 7a da 01 bb d7 ea 52 bd
       -0.041287236 0.018872304 -0.001981406 -0.051493492
0000d0 03 86 df bd 89 de f7 bd 03 d2 64 bd 80 5c a7 be
       -0.109142326 -0.12102992 -0.055864345 -0.3268776
0000e0 fe 19 50 be c3 8c 9d 3c 5e 3c 59 3c 8c e1 20 3d
       -0.20322415 0.01923216 0.013259022 0.0392776
0000f0 8d 8e 99 be cc fd 1e 3d fc 8f 8c be 36 fe 4d bd
       -0.2999157 0.03881626 -0.274536 -0.050291263
000100 ec 9c 1d bd 73 83 ba 3c a6 09 d5 39 58 c9 ab bd
       -0.03847973 0.022767758 0.00040633715 -0.08388013
000110 ae 87 a5 3c e8 04 18 bd
       0.020206299 -0.037114054

weight f4 [10, 70]
000000 11 84 08 3e 96 85 07 bd d5 34 5e 3b 72 2c 4a be
       0.1333163 -0.03308638 0.0033906002 -0.19743517
000010 52 4d 12 3c df 0f e9 3c 07 13 51 3d c0 01 d9 bd
       0.008929567 0.02844995 0.051043537 -0.10596037
000020 1b 73 9e 3d ae a1 94 bc 3c d0 d4 bc 11 8b 36 3e
       0.077367984 -0.018143501 -0.0259782 0.17826487
000030 99 cd db 3c 20 59 da 3d 96 c1 e3 3d 93 05 9e be
       0.026831435 0.106615305 0.11120908 -0.30863628
000040 2e 99 be bc 81 a7 74 3d 1a 22 77 3d b8 17 d2 3d
       -0.023266401 0.059730057 0.060335256 0.1025843
000050 f0 24 6e 3e d2 c6 dc bd e0 84 b5 3d 4d 6a 91 3d
       0.23256278 -0.107801095 0.088632345 0.071003534
000060 5d 3f c9 bd 90 91 45 bd 0c ab 20 3b 21 00 13 3c
       -0.09826539 -0.048234522 0.0024516014 0.008972199
000070 2e 75 7d 3d e1 9b 45 bb b5 62 8e be 6c 65 41 bc
       0.06187933 -0.0030152726 -0.27809682 -0.011803966
000080 7b da 9b be c0 79 91 bd 49 c8 13 bd ec fa 83 be
       -0.30440125 -0.071033 -0.03607968 -0.25777376
000090 8f d9 72 3d 5f 58 5e bd 96 5a b8 bd 6e 1b ad bc
       0.05928951 -0.054283496 -0.09001653 -0.021131244
0000a0 5e 20 b7 3d ae 69 12 bd 05 96 0d 3c 9c 45 0b 3d
       0.089417204 -0.035745315 0.0086417245 0.03400193
0000b0 31 31 a1 3d 97 75 63 bd 0a 44 4b 3d 53 24 84 bc
       0.07870711 -0.055532064 0.049625434 -0.016130602
0000c0 3f 83 37 3d 51 7c be be ef cb 83 bd f3 4b e5 bc
       0.0448029 -0.3720422 -0.064353816 -0.027990317
0000d0 31 98 1c 3e 4c ad ae 3c 28 f2 e6 bd fe 93 bc bc
       0.15292431 0.021322869 -0.112766564 -0.023019787
0000e0 4c 52 a8 bd 62 3f 45 be 44 d2 ce bd 5d 03 b1 bd
       -0.08218822 -0.1926246 -0.10098699 -0.086432196
0000f0 96 5c a8 3c d0 2a e7 3d 80 8f 32 bc 78 0a a2 bd
       0.02055196 0.11287463 -0.010898471 -0.07912153
000100 72 dd 92 3d 81 3a ae 3d 2d 60 cb bc f3 c7 36 be
       0.071711436 0.085072525 -0.024826134 -0.17849712
000110 aa e5 76 3c 9d 18 d6 3d 26 11 c4 3a c9 89 1b 3c
       0.015069405 0.10453913 0.0014958724 0.0094933
000120 95 12 83 3b ec 04 17 be 7f 84 b2 bd 2a 59 48 3c
       0.004000018 -0.14747971 -0.08716678 0.01222829
000130 73 d0 ab bd 3f 35 5e bd 07 6d 5b 3c 8c 99 57 bd
       -0.08389368 -0.05425 0.013392693 -0.052636668
000140 f8 02 99 bd d7 c7 91 bd 89 78 86 3d 47 5d bb 3d
       -0.07471269 -0.071181946 0.06565959 0.091486506
000150 db 1e b7 bd 3d 0f 38 be 33 4f 3a bd cf 2b 93 bd
       -0.08941432 -0.17974563 -0.045485687 -0.0718609
000160 44 f9 13 3e 07 ac 1c bd 97 f0 60 bd ef 21 80 bd
       0.14450556 -0.038249996 -0.054916944 -0.06256472
000170 1c 18 51 bd 10 fb 16 3b 4c f1 ad 3d 33 fc 0e bd
       -0.051048383 0.0023037829 0.08493289 -0.034908485
000180 62 57 69 3d 3f 1a a6 bd f8 29 38 3c e5 05 af 3b
       0.0569681 -0.08110475 0.011240475 0.005341279
000190 f9 ac c3 bd 60 33 e2 bd 89 3c 9b be 6c 95 00 3d
       -0.09554476 -0.11044955 -0.30319622 0.0313925
0001a0 0d ec 5d bc e5 50 f7 bd bc 5e 76 3d d0 02 82 bd
       -0.013545048 -0.12075976 0.06014894 -0.06348193
0001b0 a3 a3 b3 3d c4 b9 8f 3d cc 1b aa 3b 63 71 a9 3d
       0.087714456 0.07017854 0.005191302 0.0827358
0001c0 f6 59 82 3d fe 83 26 be 41 a1 ba 3d 9f 6e 8f 3d
       0.06364815 -0.16261289 0.09112788 0.07003521
0001d0 7a 93 e3 3c e3 5a 27 3d 83 cf ed 3c b9 6d 8b be
       0.027780283 0.04085816 0.029029613 -0.2723215
0001e0 b5 e8 26 3c 7f 12 59 bd c3 19 83 3c 4c 00 88 bc
       0.010187318 -0.052996155 0.016003495 -0.016601704
0001f0 99 fc e8 bd 7e b1 26 3d 86 6e 0d 3e f9 b1 47 be
       -0.11376304 0.040696613 0.13811693 -0.19501485
000200 17 64 83 3d 60 1d 74 3d 41 d7 04 bd f3 7e 03 3e
       0.06415575 0.059598327 -0.032431845 0.12841396
000210 d3 22 ca bd a2 79 95 3d 08 17 f8 bc 35 83 af 3d
       -0.098699234 0.0729859 -0.03028442 0.08569948
000220 be 67 93 3d 2c 3e 19 be b1 e1 9a bd 39 d6 17 bd
       0.071975216 -0.14965123 -0.075625785 -0.037069533
000230 d9 42 50 3e a5 c4 99 3d f1 38 01 be 8d dd 85 be
       0.20338 0.0750821 -0.12619378 -0.26145592
000240 d5 29 aa bb 73 ff 75 bc 03 cc 84 bc 6d a5 60 bd
       -0.005192975 -0.015014517 -0.016210562 -0.054845262
000250 26 f8 ab 3e f6 bd 33 3e 43 fa b0 3d be 0b 04 3e
       0.3358776 0.17552933 0.08641484 0.12895104
000260 07 9c 1f 3d fa d6 b5 bd 54 ef 44 3c 4c 21 e8 be
       0.03896716 -0.08878894 0.012019951 -0.45337903
000270 83 81 a0 bb 93 d4 a5 bd b4 2f 69 3e d9 73 af 3c
       -0.0048982515 -0.08097186 0.22772104 0.021417545
000280 8e 13 e4 3c 21 05 71 bd 81 df 2e 3c 84 cd ba bc
       0.027841356 -0.058842782 0.010673405 -0.022803076
000290 75 d1 c9 bd 20 a3 cf b9 3d 35 01 3e 64 f8 7c 3e
       -0.09854404 -0.00039603654 0.12617965 0.24704129
0002a0 c9 80 bb 3d 02 2e 6b bc c8 ea 8c be d8 66 1f 3e
       0.09155423 -0.014354231 -0.27522874 0.15566576
0002b0 e9 74 e8 be 2d 97 a9 3d b3 da 48 3e f1 d5 8b be
       -0.45401695 0.082807876 0.19614677 -0.27311662
0002c0 6c 3c 5f 3d 97 15 4d 3d a2 45 01 3d da 32 b7 bd
       0.054500982 0.050069418 0.031560548 -0.08945246
0002d0 ce 3e 8b bd 42 a0 c3 bd 56 7e 74 3e 8f 6f cd 3d
       -0.067990884 -0.09552051 0.23876318 0.10031044
0002e0 0f 82 17 bd 22 b0 2b bd 33 fa e4 3d 5f be 86 3d
       -0.036989268 -0.04191602 0.11180534 0.06579279
0002f0 c6 c3 5a 3d 39 14 9e be 69 84 9a bc 43 f9 71 3d
       0.05340936 -0.30874804 -0.018861966 0.059075605
000300 85 ae 7c 3e 59 08 81 3d 4d bd 45 bb d1 2f 01 be
       0.24675949 0.0630042 -0.0030172647 -0.12615897
000310 a3 67 0b bd cb b0 99 be d3 bb 97 3c c6 f6 15 3e
       -0.034034383 -0.30017695 0.018522179 0.14644918
000320 0e b7 de bd d6 82 f6 bd 26 2c f4 3c 18 ac f5 bc
       -0.10874759 -0.12036674 0.029806208 -0.029989287
000330 55 12 e3 3c a6 82 b2 3b 07 1b 64 3d b6 6a 5e be
       0.027718702 0.0054477034 0.055689838 -0.21720394
000340 18 eb 18 3d 31 69 f0 3d af 8d 36 3e 2d da d4 bd
       0.037333578 0.11738814 0.17827486 -0.10393176
000350 67 fb 97 3d f4 26 cf bd 0f 1c 8a bd 6a 4d 6f 3e
       0.07420998 -0.101148516 -0.06743633 0.23369375
000360 76 40 d1 3d 32 b1 37 3d 41 5b 12 3e b6 cc 92 bc
       0.10217373 0.04484672 0.14292623 -0.01791988
000370 25 98 b7 bd 4c 46 2c 3e 3f 47 71 3d 7d 2f 58 3b
       -0.08964566 0.16823691 0.058905836 0.003298729
000380 c4 37 14 3d 35 5a 9e be 07 46 97 bd a1 88 a8 3d
       0.036185995 -0.30928198 -0.073864035 0.08229185
000390 19 0d 38 3e 62 56 b3 3e cf f2 fd 3d c9 6f 6d 3d
       0.17973746 0.35026842 0.12399828 0.057967935
0003a0 eb 28 ab 3e cf 86 95 3d c4 ed bc 3d 69 33 8a 3d
       0.33429655 0.07301103 0.09225038 0.06748087
0003b0 a4 73 13 3e 03 da 9a 3e ab bb 2a bd c3 57 bb 3d
       0.14399582 0.30244455 -0.04168288 0.091475986
0003c0 52 c3 45 be 45 83 40 3e 3d 55 15 be 9e 51 bb bc
       -0.1931279 0.18800075 -0.14583297 -0.022866067
0003d0 0d c6 5e 3e 0f ea 3c bd b4 4c c9 bd c2 a0 aa bd
       0.21755238 -0.046121653 -0.09829083 -0.08331443
0003e0 5a f9 26 bd 42 ab a2 3d a6 40 61 bc 00 81 51 bd
       -0.040765144 0.07942821 -0.013748324 -0.051148415
0003f0 4f 76 e0 3d d8 6f 90 3d 3c 1a c9 bd 62 d4 56 bc
       0.109600656 0.070525825 -0.09819457 -0.013112159

bias f4 [10]
000000 da 4c 28 be 29 d1 52 be b7 c2 68 bd 12 e9 7a 3d
       -0.16435567 -0.20587601 -0.05682632 0.06125743
000010 be 49 ff bc 4d 52 1f be 98 e0 f5 bd 43 3c 85 be
       -0.031163093 -0.15558739 -0.120057285 -0.2602254
000020 85 d0 2b be d0 8b 2e bc
       -0.16778763 -0.010653451

weight f4 [1, 10]
000000 9a 4c 77 3b 09 f9 52 bc 65 b4 a9 bc dd bd a1 be
       0.0037734867 -0.012876757 -0.020715902 -0.31590167
000010 15 30 10 be 41 e3 fc bc 97 94 59 3e 10 54 9a be
       -0.14080842 -0.030870082 0.21248089 -0.3014226
000020 b1 ea 87 be 66 af 81 3b
       -0.26546243 0.0039576767
